lstm_attn_state_dict.pth (torch, 9470 bytes, 14 tensors)

encoder.lstm.clayer_in.weight f4 [4, 16]
-0.05933107 -0.08515977 0.0041056178 0.016163802 -0.3875229 0.3712482 -0.4361425 -0.1667147
-0.10144807 -0.51953006 0.5758754 -0.06282413 0.5379381 -0.29308295 0.41984892 -0.35143524
0.037591632 -0.17674652 -0.06102397 -0.113204755 0.053185254 -0.19696742 0.35281685 0.38611558
-0.020219214 0.05021946 -0.29269135 0.33750457 -0.15570815 -0.082297094 0.035850096 -0.0074787936
0.090049736 0.022493659 -0.019239267 -0.04159445 0.03925868 0.22498234 0.60183716 -0.071033
0.050244145 -0.053424776 0.057865746 0.37866366 0.1197765 -0.11247567 0.1663839 0.047437657
-0.058650237 -0.5099137 -0.19460963 -0.03349571 -0.17500588 0.13695611 0.055859208 0.0800053
0.100222476 0.014261849 0.30216974 -0.31420547 0.12576252 -0.14540467 -0.033188097 -0.10743529
00000000: 2305 73bd 3f68 aebd 6b88 863b f369 843c
00000010: 6769 c6be 3e14 be3e 124e dfbe 42b7 2abe
00000020: 01c4 cfbd ecff 04bf 926c 133f f0a9 80bd
00000030: 50b6 093f f80e 96be 70f6 d63e 52ef b3be
00000040: aff9 193d 0afd 34be 45f4 79bd e5d7 e7bd
00000050: c8d8 593d d4b1 49be 69a4 b43e f1b0 c53e
00000060: c4a2 a5bc ecb2 4d3d a4db 95be 66cd ac3e
00000070: f571 1fbe 618b a8bd 8dd7 123d ab10 f5bb
00000080: ff6b b83d 9f44 b83c ab9b 9dbc f15e 2abd
00000090: b6cd 203d c561 663e 0012 1a3f c079 91bd
000000a0: cecc 4d3d f0d3 5abd a204 6d3d 34e0 c13e
000000b0: 624d f53d a559 e6bd 8b60 2a3e fd4d 423d
000000c0: 3b3b 70bd b489 02bf bf47 47be cc32 09bd
000000d0: be34 33be 393e 0c3e a0cc 643d d2d9 a33d
000000e0: 7141 cd3d 88aa 693c feb5 9a3e 8adf a0be
000000f0: e4c7 003e f6e4 14be 3ef0 07bd 0907 dcbd

encoder.lstm.clayer_in.bias f4 [4]
0.3915692 -0.22657558 0.1977063 -0.15008114
00000000: c27b c83e 6e03 68be 8573 4a3e dfae 19be

encoder.lstm.clayer_out.weight f4 [12, 4]
0.28208032 -0.13697469 0.23124012 -0.41873702 -0.22743697 0.04176855 0.092029795 -0.12630469
0.7521289 0.2018553 -0.1772751 -0.059731636 0.25839034 -0.2021633 -0.20845087 -0.5316374
-0.027147897 0.24145262 0.010376188 -0.21826646 -0.013089826 -0.36367565 -0.4735853 -0.31568336
-0.43326297 -0.430304 0.38369974 -0.082600534 -0.44361633 -0.9781506 -0.38206512 -0.26504633
0.06300686 -0.63992554 -0.36170402 -0.49813974 -0.29822525 -0.27589425 -0.18160641 -0.5224934
-0.53613687 -0.5496913 -0.4102416 -0.60586077 0.33564064 -0.016980024 0.480499 0.23084445
00000000: d56c 903e 1843 0cbe 36ca 6c3e b364 d6be
00000010: 3de5 68be 8015 2b3d 1e7a bc3d 0456 01be
00000020: 858b 403f 28b3 4e3e 9b87 35be 29a9 74bd
00000030: bd4b 843e e503 4fbe 2574 55be 6319 08bf
00000040: 4465 debc 5b3f 773e e300 2a3c 3e81 5fbe
00000050: b676 56bc b233 babe c679 f2be 40a1 a1be
00000060: a5d4 ddbe ce50 dcbe 4b74 c43e 782a a9bd
00000070: ae21 e3be 1468 7abf 0a9e c3be 27b4 87be
00000080: be09 813d 29d2 23bf 4531 b9be 2c0c ffbe
00000090: fbb0 98be 0342 8dbe 08f7 39be 21c2 05bf
000000a0: 4440 09bf 92b8 0cbf 300b d2be b119 1bbf
000000b0: 17d9 ab3e b119 8bbc f703 f63e 7d62 6c3e

encoder.lstm.clayer_out.bias f4 [12]
-0.54387033 0.28396997 -0.08638024 -0.34255722 -0.5256762 -0.47167987 0.16930722 -0.10442837
0.14719397 -0.4434901 0.1315302 -0.48915437
00000000: 163b 0bbf 8364 913e 20e8 b0bd a963 afbe
00000010: b792 06bf 0680 f1be df5e 2d3e 8bde d5bd
00000020: 04ba 163e 2211 e3be daaf 063e 7172 fabe

encoder.attn.weight f4 [1, 34]
-0.029434416 0.035344046 0.08852485 0.13856837 0.15644997 -0.13589591 0.042730335 -0.07385106
-0.018969672 -0.12818125 0.15583737 -0.12578619 0.09216297 0.059284586 0.055685695 -0.09249233
0.15656912 0.037959892 0.021295771 -0.15128279 0.07167926 -0.025354138 -0.07911774 0.1476061
-0.09524237 -0.13909917 -0.08936281 -0.033692807 0.02052085 -0.070584744 -0.08942572 0.020285854
0.011145964 0.20722318
00000000: 7220 f1bc ebc4 103d 844c b53d dee4 0d3e
00000010: 6c34 203e 4c28 0bbe 0106 2f3d 393f 97bd
00000020: 4966 9bbc f241 03be d593 1f3e 18ce 00be
00000030: f0bf bc3d 65d4 723d af16 643d 9e6c bdbd
00000040: a853 203e d57b 1b3d 7874 ae3c e0e9 1abe
00000050: 93cc 923d 7bb3 cfbc 7b08 a2bd 0e26 173e
00000060: 6f0e c3bd 0370 0ebe d903 b7bd 7801 0abd
00000070: 571b a83c bc8e 90bd d524 b7bd 852e a63c
00000080: 909d 363c 5032 543e

decoder.lstm.clayer_in.weight f4 [4, 13]
-0.58801544 0.13048744 0.1893791 -0.04211412 -0.32729447 0.2433399 -0.082866654 -0.10723272
0.011124187 0.025170125 0.20098443 0.011694977 -0.098152846 0.073160484 0.17158026 0.2160513
0.030401193 0.042343564 -0.23112379 0.1968651 0.24529923 -0.309288 -0.18879497 0.0604892
0.08040493 0.41505834 -0.24150443 -0.026253859 -0.39947236 -0.0031068171 0.21602474 0.4282414
0.30104068 -0.42541796 0.0010430738 0.025881197 0.18331343 0.1802552 -0.24624063 -0.08102851
0.17273033 -0.16613308 0.18869421 -0.05397575 0.40896463 -0.23960131 -0.073307924 0.51539356
0.3523625 -0.13870277 0.037580036 -0.39028266
00000000: 2e88 16bf 809e 053e 98ec 413e db7f 2cbd
00000010: 2493 a7be 182e 793e feb5 a9bd d49c dbbd
00000020: 3942 363c 9431 ce3c ddce 4d3e 4a9c 3f3c
00000030: 5c04 c9bd 2ad5 953d bcb2 2f3e 8d3c 5d3e
00000040: ec0b f93c 7270 2d3d b7ab 6cbe 0197 493e
00000050: b92f 7b3e ff5a 9ebe 7853 41be 86c3 773d
00000060: 57ab a43d 8782 d43e f04c 77be 5512 d7bc
00000070: a487 ccbe be9b 4bbb 9735 5d3e 7542 db3e
00000080: 0122 9a3e 62d0 d9be c0b7 883a ce04 d43c
00000090: 84b6 3b3e d294 383e 8126 7cbe 47f2 a5bd
000000a0: 38e0 303e ca1e 2abe 0e39 413e ad15 5dbd
000000b0: d063 d13e 0c5a 75be 7722 96bd d5f0 033f
000000c0: dc68 b43e 1908 0ebe 86ed 193d 21d3 c7be

decoder.lstm.clayer_in.bias f4 [4]
0.245856 0.4903206 -0.113849856 -0.12950401
00000000: adc1 7b3e 4d0b fb3e 1d2a e9bd b39c 04be

decoder.lstm.clayer_out.weight f4 [12, 4]
-0.5237015 -0.3278046 -0.835643 -0.6014482 -0.46143094 0.10916979 -1.0320143 -0.23304169
0.16539186 0.73868614 -0.1392034 0.7243098 -0.45240638 0.45845664 0.5860355 0.26694164
-0.36705923 -0.54544824 -1.1192083 -0.34470487 -0.7349802 0.47588393 0.31357974 0.5036621
0.2297106 -0.016309844 0.44504827 0.61401135 -0.6772381 -0.37613037 -0.8956631 -0.4791774
-0.18133186 -0.4820711 -0.4873516 -0.7439992 0.07041225 0.004269125 -0.430486 -0.4584295
-0.37989786 -0.6681786 -1.0026207 0.045529615 0.05138205 -0.54111433 0.3588124 -0.2670075
00000000: 4d11 06bf 01d6 a7be b3ec 55bf 82f8 19bf
00000010: ad40 ecbe 6994 df3d 0b19 84bf 7ba2 6ebe
00000020: 7c5c 293e 891a 3d3f 568b 0ebe 5e6c 393f
00000030: cfa1 e7be d4ba ea3e 6c06 163f 93ac 883e
00000040: 30ef bbbe 7fa2 0bbf 3842 8fbf 287d b0be
00000050: aa27 3cbf 0fa7 f33e 868d a03e 00f0 003f
00000060: 4139 6b3e 399c 85bc 5edd e33e d92f 1d3f
00000070: 7a5f 2dbf 2994 c0be 2d4a 65bf bd56 f5be
00000080: 0faf 39be 06d2 f6be 2686 f9be bb76 3ebf
00000090: 4c34 903d 04e4 8b3b a968 dcbe 45b7 eabe
000000a0: f981 c2be c10d 2bbf e055 80bf 437d 3a3d
000000b0: fc75 523d 7886 0abf 42b6 b73e 35b5 88be

decoder.lstm.clayer_out.bias f4 [12]
-0.045376327 0.01549462 0.043084063 0.20721187 0.06396851 -0.23554966 0.28093135 -0.053178888
-0.0034130272 -0.042819228 0.1176329 0.3192066
00000000: 87dc 39bd 26dd 7d3c ea78 303d 592f 543e
00000010: ec01 833d ee33 71be 3cd6 8f3e 1bd2 59bd
00000020: 18ad 5fbb 3763 2fbd 85e9 f03d 0c6f a33e

decoder.attn.0.weight f4 [12, 36]
-0.03198283 -0.45475525 0.17156048 0.07815497 -0.06345107 0.14597224 -0.17636766 -0.1419713
-0.052148983 0.12382268 -0.15264776 -0.35506707 -0.041102033 -0.44241363 -0.040046647 -0.23013899
-0.29941833 -0.115892 -0.42243576 -0.025963005 -0.0812457 0.12437055 -0.28386995 -0.45356077
-0.014303083 -0.09486232 0.09258909 -0.044110596 0.07527132 -0.05802104 -0.02759941 -0.021453714
-0.116945766 -0.14810264 -0.17624934 0.27990916 -0.21188268 -0.29521585 0.16324966 0.0859647
-0.014409895 0.22928727 -0.05812663 -0.2959111 -0.10982627 0.18861446 -0.15137964 -0.3063817
-0.009390705 -0.2840929 0.041709736 -0.12338869 -0.13548425 0.18765314 -0.15772532 -0.13773508
-0.28285715 -0.043660697 -0.17070484 -0.11329163 0.15816368 0.07202712 0.047107354 -0.0895257
-0.09315904 -0.0028405925 0.005767289 0.07758364 -0.12891074 0.08478661 0.12458956 0.10868113
0.07456617 -0.12692103 0.18879852 -0.25490907 -0.13855575 0.09490909 -0.25416467 -0.10421895
-0.110844776 0.22580898 0.013637915 -0.23772623 -0.17364724 -0.27708837 0.0490977 -0.092416696
-0.18029693 -0.059442926 -0.13709772 -0.072924346 -0.059117354 0.079130165 -0.25254554 -0.49435437
-0.03648749 0.067060314 -0.0002179105 -0.0597424 0.033050068 0.18712421 0.046346366 0.0413248
-0.12989381 -0.039873842 0.23462063 -0.074452095 -0.025692834 0.22217934 -0.12903132 -0.08207866
0.17774974 0.08571051 0.3239708 0.05815174 -0.09007349 -0.2795949 0.12738074 0.45464823
0.07002491 0.18041728 0.036266275 -0.060566865 0.20005754 -0.09445802 0.32245392 0.06377421
0.0966524 -0.2969209 0.22272688 0.40896043 0.14259356 0.18261068 -0.13746229 -0.095595375
0.06975069 0.10990485 -0.08886519 0.099928536 -0.14318773 -0.15771471 0.07982604 0.041073374
-0.06947108 -0.29106554 0.15177388 -0.17735839 -0.10421294 -0.0967798 -0.30234906 -0.053941328
-0.14499685 0.242896 -0.15427953 -0.4674962 -0.21253106 -0.109818146 0.1149423 -0.07629187
0.08480278 0.0031366246 -0.4019656 -0.22201668 0.049733263 0.117003955 -0.1950173 -0.40579534
0.08733987 0.14539827 -0.13449818 -0.069538675 0.17299198 -0.02634608 -0.099252395 0.047109712
-0.18878646 0.22043313 0.21638848 0.13285878 0.014014572 -0.08712723 0.014183656 -0.10557423
-0.043400917 0.012596147 -0.014094927 -0.09447768 -0.09436781 0.059334684 -0.1310302 -0.18102118
0.06136608 -0.018478721 0.092623964 -0.21226479 -0.16189495 -0.075947285 -0.22688523 -0.059716325
-0.19630608 0.1632964 -0.20088695 -0.34729645 -0.115007065 0.053306058 -0.063578695 0.16602495
-0.011489644 -0.07215531 0.038003787 0.034066226 0.13100226 0.07369296 -0.20752205 0.20671453
0.012236841 0.088744536 0.12042841 0.22245532 -0.1246176 0.08932227 0.32316518 0.09496779
-0.03993411 -0.21791033 -0.01371838 -0.0025889692 0.12545097 -0.011932535 0.10485264 0.19505069
-0.011179923 0.3035608 0.23972112 0.08957567 0.10103446 0.039762203 -0.062005427 0.108561434
0.022473097 -0.037167035 0.05411195 -0.14255077 -0.049213268 0.07839198 -0.04221801 -0.062153444
0.12853418 0.12598345 0.105950125 -0.03824458 -0.20705259 -0.19337915 -0.055709958 -0.23746526
00000000: 6e00 03bd aed5 e8be 8dad 2f3e b70f a03d
00000010: a2f2 81bd bf79 153e b999 34be ed60 11be
00000020: 2c9a 55bd bf96 fd3d b24f 1cbe 5acb b5be
00000030: 9b5a 28bd 0a84 e2be f407 24bd 8ea9 6bbe
00000040: 5c4d 99be c958 edbd 8049 d8be 5eb0 d4bc
00000050: 2564 a6bd fdb5 fe3d 6757 91be 1e39 e8be
00000060: 7a57 6abc 2d47 c2bd 599f bd3d 50ad 34bd
00000070: da27 9a3d 78a7 6dbd 2818 e2bc b3bf afbc
00000080: 4381 efbd 38a8 17be b57a 34be 4150 8f3e
00000090: c6f7 58be 8826 97be eb2a 273e 430e b03d
000000a0: 7b17 6cbc 48ca 6a3e 3016 6ebd a981 97be
000000b0: 98ec e0bd 2624 413e 4403 1bbe 10de 9cbe
000000c0: 79db 19bc a074 91be d4d7 2a3d 36b3 fcbd
000000d0: 62bc 0abe 2528 403e bf82 21be 6d0a 0dbe
000000e0: a7d2 90be 8fd5 32bd 40cd 2ebe 7105 e8bd
000000f0: a9f5 213e f482 933d a4f3 403d 4059 b7bd
00000100: 2bca bebd 3c29 3abb 87fb bc3b 2ce4 9e3d
00000110: 2d01 04be 9aa4 ad3d d028 ff3d 3694 de3d
00000120: 26b6 983d 96f7 01be 6654 413e 7183 82be
00000130: 8fe1 0dbe b25f c23d df21 82be bf70 d5bd
00000140: 9602 e3bd 783a 673e 9071 5f3c 816e 73be
00000150: 95d0 31be 87de 8dbe ab1a 493d f744 bdbd
00000160: c29f 38be 6d7a 73bd 5863 0cbe 5c59 95bd
00000170: 0a25 72bd ff0e a23d a64d 81be 041c fdbe
00000180: e873 15bd eb56 893d e87e 64b9 72b4 74bd
00000190: 825f 073d 7d9d 3f3e b0d5 3d3d 3244 293d
000001a0: e202 05be c152 23bd 6440 703e 577a 98bd
000001b0: c779 d2bc fb82 633e c920 04be db18 a8bd
000001c0: 0704 363e fe88 af3d 80df a53e 8530 6e3d
000001d0: 7378 b8bd 1027 8fbe 1970 023e a7c7 e83e
000001e0: 3869 8f3d 4fbf 383e f28b 143d f614 78bd
000001f0: e2db 4c3e 3573 c1bd ae18 a53e 0e9c 823d
00000200: b2f1 c53d 0406 98be 8412 643e 4363 d13e
00000210: 0c04 123e 4bfe 3a3e eac2 0cbe 82c7 c3bd
00000220: 73d9 8e3d cb15 e13d f4fe b5bd 55a7 cc3d
00000230: ce9f 12be f77f 21be d67b a33d 8e3c 283d
00000240: db46 8ebd 8b06 95be 9d6a 1b3e 709d 35be
00000250: 986d d5bd 7d34 c6bd 7fcd 9abe 95f1 5cbd
00000260: 0e7a 14be bbb9 783e 74fb 1dbe a95b efbe
00000270: bea1 59be 56e8 e0bd de66 eb3d e93e 9cbd
00000280: 14ad ad3d d48f 4d3b 6fce cdbe 5758 63be
00000290: 1bb5 4b3d c59f ef3d 9db2 47be 68c4 cfbe
000002a0: 3fdf b23d 49e3 143e e4b9 09be 4b6a 8ebd
000002b0: cf24 313e bcd3 d7bc d744 cbbd 1df6 403d
000002c0: 3d51 41be 39b9 613e f194 5d3e 220c 083e
000002d0: 609d 653c c36f b2bd 9162 683c 4d37 d8bd
000002e0: 29c5 31bd 1260 4e3c 69ee 66bc 847d c1bd
000002f0: e943 c1bd ed08 733d c82c 06be 9e5d 39be
00000300: 005b 7b3d b060 97bc a2b1 bd3d f15b 59be
00000310: cac7 25be 408a 9bbd 9a54 68be 1b99 74bd
00000320: 7604 49be 2c37 273e 4fb5 4dbe d7d0 b1be
00000330: d388 ebbd 7457 5a3d 8c35 82bd 7202 2a3e
00000340: 0f3f 3cbc 2ac6 93bd dca9 1b3d 0789 0b3d
00000350: 7525 063e 56ec 963d a980 54be f9ac 533e
00000360: 087d 483c b2bf b53d 2ca3 f63d 54cb 633e
00000370: 8337 ffbd 98ee b63d e875 a53e 797e c23d
00000380: f391 23bd e323 5fbe 0ec3 60bc b2ab 29bb
00000390: 3876 003e ae80 43bc fbbc d63d 5ebb 473e
000003a0: ff2b 37bc 526c 9b3e 7479 753e 7373 b73d
000003b0: 28eb ce3d b1dd 223d 67f9 7dbd 7555 de3d
000003c0: 8019 b83c 763c 18bd 7ea4 5d3d d4f8 11be
000003d0: da93 49bd f98b a03d cbec 2cbd 9c94 7ebd
000003e0: 779e 033e ce01 013e 61fc d83d 59a6 1cbd
000003f0: 9805 54be 2f05 46be 2030 64bd 182a 73be

decoder.attn.0.bias f4 [12]
-0.38542977 -0.39508283 -0.41482717 0.51852596 -0.45150176 -0.33752745 0.29634672 -0.13065676
0.53281987 -0.5867887 0.47817567 0.37356517
00000000: 0d57 c5be 4c48 cabe 3a64 d4be 1ebe 043f
00000010: 3d2b e7be 66d0 acbe c2ba 973e e3ca 05be
00000020: e266 083f c937 16bf 71d3 f43e ef43 bf3e

decoder.attn.2.weight f4 [1, 12]
0.04626796 -0.058338355 -0.07606832 -0.10330025 -0.14152008 -0.016025143 0.0049916767 0.14575459
0.010236284 0.020353872 -0.011980098 0.017295266
00000000: 7983 3d3d 33f4 6ebd b5c9 9bbd 158f d3bd
00000010: a4ea 10be 2947 83bc 3891 a33b b140 153e
00000020: 16b6 273c 2abd a63c 2c48 44bc cdae 8d3c

decoder.fc.weight f4 [1, 13]
1.0609586 -0.31346485 0.26329115 -1.2981279 1.916862 1.2160312 0.68023473 -0.9063986
0.66779685 -0.031441987 -0.05735389 -1.3192934 1.0536518
00000000: 7ecd 873f 777e a0be 19ce 863e 0e29 a6bf
00000010: bc5b f53f e9a6 9b3f dd23 2e3f bd09 68bf
00000020: bcf4 2a3f 50c9 00bd eaeb 6abd 9bde a8bf
00000030: 10de 863f

decoder.fc_out.weight f4 [1, 24]
0.62428105 0.35371226 -0.67957616 -0.6673925 0.672341 -0.36787292 -0.26847112 0.77307653
0.43864095 0.29456517 0.66334194 -0.121935844 0.13576777 -0.14338164 -0.22135398 -0.016718902
-0.13749604 0.20917283 -0.16149908 0.11251484 -0.30859676 0.122073084 0.028533895 -0.1562408
00000000: e2d0 1f3f c619 b53e b4f8 2dbf 3cda 2abf
00000010: 8a1e 2c3f d759 bcbe 0c75 89be 58e8 453f
00000020: 8c95 e03e 3fd1 963e c7d0 293f 80b9 f9bd
00000030: b506 0b3e a3d2 12be 9eaa 62be 14f6 88bc
00000040: c3cb 0cbe 6731 563e 0460 25be 2e6e e63d
00000050: 6500 9ebe 7401 fa3d eabf e93c 97fd 1fbe
